mnist.model (torch, 481455 bytes, 8 tensors)

conv1.weight f4 [32, 1, 3, 3]
00000000: 4c12 733e d86a 42be 4346 b93e 7a76 593e
00000010: f932 a73e 3a51 b83e 42f3 acbd 88e5 133e
00000020: cec7 b83e 459c 8a3e 0964 683e 7f70 aa3e
00000030: a19e 7e3e 8b2a 033e 67c5 e93d bca7 7cbe
00000040: 1465 7abe 2ff2 95be 9377 82bc 4fe8 5f3d
00000050: 3b88 b33e a5d9 c33e c6f8 50be c687 cf3e
00000060: 4658 cf3d d6d1 39bd 0da2 aebd 2dc4 a7bd
00000070: 67a9 2dbe 96e8 8abe a9ea 943d 4036 92be
00000080: 314b 75be 9dde a1be d0c6 473b 3907 ce3d
00000090: dcd1 86bd f457 123e 54fd 68be 522e 9dbe
000000a0: c4a8 a8bd aceb a9be 6599 773e 7ce2 7bbd
000000b0: 5068 c3bc ce67 853d d3cf b9be fe7d 09bd
000000c0: 2187 a7be 09af 87be a9ba 61bd c363 df3d
000000d0: f95c d6bc 9551 453e e0dc 9c3d 8356 35be
000000e0: 9a70 97be 5060 a03c 0618 fcbd 6352 22be
000000f0: 18cb 0b3e 3095 94be 366c fcbd 16c5 59bd
00000100: 0ff1 a8bd 5e2a 19be 78e3 b0be b897 a7be
00000110: 90e3 c33d f89b 73be 7189 b1be edfa 4b3e
00000120: ba8c c6bd c950 5c3e 2b56 3d3d 2910 41b9
00000130: 53a7 a8bd 70a1 1bbe 6e98 833e 951d 9d3e
00000140: a3ac 5e3e aa24 cbbd a3a4 853e 252a bbbe
00000150: ec7d 5fbe b1a0 9abe 1fd3 953e d3bd b6bc
00000160: 3e07 69be 92a6 09be 1b1a 8a3e 9bde 95be
00000170: e48a 94bd 073c babe 455f 1c3c e63e 68bd
00000180: fdb1 79be 24f0 523e b3d5 d33d 0fe0 8c3c
00000190: 0e34 61be 004e 05be 9810 b63e 98a8 a2bd
000001a0: 85c8 2e3e a7fe bc3d 5d82 a2bd 5599 af3e
000001b0: f9e1 3ebe 3f7e 8d3e 2158 163e d2ce bf3d
000001c0: 47d2 60be 2003 8bbd 3791 233d 0798 6c3d
000001d0: 28c3 a03e d495 633e afe9 b2bd d8db b2bd
000001e0: 8988 acbe 6cde 6bbd 7f60 a1be 4d7e 93bd
000001f0: 3e06 d03c 05dc a4bd 4179 88be 6aab 97be
00000200: c98b 8dbe e432 a23e c245 283e 9a62 babc
00000210: 8ff2 733d 5060 45bd f0ae 7fbd d18e 703e
00000220: 3675 04bd 830f b53e 3af8 e13d 8939 72be
00000230: 6c89 803e 2ffd 91be 96d2 8ebe 1e79 6ebd
00000240: 67f0 29be ee86 19be 760e b5be 170b 5cbd
00000250: 07ee 53be c049 85be 692c 133b e345 563e
00000260: 193e b4be 18af 3cbe 80ac 51be eaad 903e
00000270: 21b1 7dbe 31e6 40be 6b6c 953e 0f87 9ebd
00000280: 55b8 dcbc c7e2 e1bc bf90 6d3e 3fa6 c23e
00000290: b459 1abe db86 843e 8260 7d3e eec4 50be
000002a0: 6d7b 643d d757 903e 90b3 b53e 6cb9 2d3d
000002b0: b695 f03d 81f8 a93d 5c2d 73bc 4ba3 963e
000002c0: bf56 f5bc 2550 28be 3af9 803d ef14 2abe
000002d0: ec6d a0be b1c3 ddbb 324f 06bd 84f3 833e
000002e0: 9be3 fd3d e9bb 833e 05a9 263d 07b4 8d3d
000002f0: b456 b5be e108 62be 5337 81be 4d6f 1a3e
00000300: ba54 c7bd 9c42 163d 0a1d 0cbe 3d57 ccbe
00000310: dfdb a0bd 00be ee3c cbe2 8c3d 7597 2f3e
00000320: a396 873d f946 973e 26be 553d 1349 93be
00000330: 5406 4f3d 3674 5ebe 5977 08bd 2cd6 ff3d
00000340: 9c17 92be 4e5c 8f3e 46ff 9a3d 9409 7f3e
00000350: 6cc5 a3be fb28 b63d 6d3e 723e 56ae 95be
00000360: 30c7 fabd eacd c8be de0e 56be 4837 a1be
00000370: 4492 eab9 6d0f d43d 360c e3bd eea6 3ebe
00000380: 2e22 ac3c 1ce2 b03d 86eb 9f3e 4d26 853e
00000390: 177c 68be 2bfa 793e 0a26 893e 680e c0bd
000003a0: 5fe9 92be 81a3 15be 5811 b9bc 59c6 593e
000003b0: 431d 3cbd 941d 6c3d 60eb e33d 4cf5 5fbd
000003c0: 8724 b9be c1ba 5c3e 071d 89be 5421 993e
000003d0: bd95 f83d 965a 22be 2a9d 8cbe 9e4e b93d
000003e0: efb6 ce3d 61d0 2abd 860e 07be a265 903e
000003f0: 1397 993e 95e4 b73e b479 873e ad21 543e
0.23737448 -0.1898607 0.36186418 0.21236601 0.32656077 0.3599947 -0.08444835 0.14443028
0.3608994 0.2707235 0.2269441 0.33288953 0.248652 0.12809198 0.11414605 -0.2467336
-0.2445262 -0.29286334 -0.015926158 0.054664906 0.35064873 0.38251987 -0.204074 0.40533274
0.10124259 -0.04536613 -0.085270025 -0.081917144 -0.16959153 -0.27130574 0.072713204 -0.28557014
-0.23954464 -0.31615153 0.0030483492 0.10059971 -0.06582996 0.14291364 -0.22752887 -0.30699402
-0.082353145 -0.33187616 0.24179609 -0.06149529 -0.023853451 0.0651394 -0.3629137 -0.03356742
-0.32720283 -0.2650073 -0.055109654 0.109077 -0.02616738 0.19269402 0.07659316 -0.17708783
-0.29578096 0.019577175 -0.123092696 -0.1585174 0.13651693 -0.2902007 -0.12325327 -0.05316647
-0.08249103 -0.14957568 -0.34548545 -0.3273294 0.095648885 -0.23789966 -0.34675172 0.1991994
-0.0969481 0.21515192 0.046224754 -0.00018411934 -0.082350396 -0.15198302 0.25702232 0.30686632
0.21745543 -0.099191025 0.2610217 -0.3655559 -0.21825379 -0.30200723 0.29262635 -0.022307312
-0.22756669 -0.13442448 0.26973042 -0.29271397 -0.07253054 -0.36373922 0.009544198 -0.05670061
-0.24384303 0.20599419 0.10343494 0.017196683 -0.21992514 -0.13018036 0.35559535 -0.07942313
0.1706868 0.092282586 -0.07935021 0.3429667 -0.18640889 0.2763538 0.14682056 0.0936562
-0.21955214 -0.067877054 0.03993341 0.057762172 0.31398892 0.22225124 -0.08735978 -0.08733338
-0.33697918 -0.057585165 -0.31518933 -0.07201824 0.025393602 -0.08049778 -0.2665501 -0.29622966
-0.2764571 0.3167945 0.1643286 -0.022752095 0.059557494 -0.048187554 -0.062422693 0.2349198
-0.032338344 0.35363397 0.110336736 -0.2365476 0.25104845 -0.28513476 -0.2789504 -0.058220975
-0.16595612 -0.14992878 -0.35362595 -0.053721514 -0.20696269 -0.2603283 0.002245689 0.20925097
-0.35203627 -0.18426168 -0.2047596 0.28257686 -0.247746 -0.18837811 0.2918428 -0.07740604
-0.026943365 -0.027573956 0.23199748 0.3801746 -0.15073282 0.25884137 0.24743846 -0.20387623
0.05578177 0.28192016 0.35488558 0.04241316 0.11747305 0.082993515 -0.0148423575 0.29421458
-0.02994859 -0.16436823 0.06297536 -0.16609548 -0.31333864 -0.006767713 -0.03279037 0.25771725
0.12396928 0.25729302 0.040688533 0.06919103 -0.35417712 -0.220737 -0.25237522 0.1508152
-0.09732957 0.036684617 -0.13682953 -0.39910308 -0.07854437 0.029143333 0.06879195 0.1714762
0.066205285 0.29546335 0.052183293 -0.2876669 0.050543144 -0.21724018 -0.033316944 0.12492022
-0.28533638 0.2800011 0.07568221 0.24905998 -0.31986558 0.08894535 0.23656626 -0.2923457
-0.12245023 -0.392196 -0.20904109 -0.3148749 -0.00044740934 0.10354505 -0.110863134 -0.18618366
0.021012392 0.08636877 0.31234378 0.26005784 -0.22703587 0.24411838 0.26786834 -0.09377748
-0.28693673 -0.14613153 -0.022591278 0.2126707 -0.045926344 0.057645395 0.111288786 -0.054677293
-0.3616068 0.21555616 -0.2677996 0.2990824 0.12137935 -0.15854868 -0.27463657 0.09048198
0.100934856 -0.04170263 -0.13189134 0.2820254 0.29998073 0.35916582 0.2646004 0.20715971

conv1.bias f4 [32]
00000000: 92e0 81be dd59 2ebe 0765 1fbe c313 5b3d
00000010: 00ef 92be cbae ed3d e27e 82be bc84 b53e
00000020: f35a cdbd b08e fc3d 494b 9b3e 434e b23d
00000030: eff1 6d3c 54e3 a53e 2d9e b3bd 5639 153e
00000040: 119a 963d 38e0 baba 4278 78bd 99fd 05be
00000050: c202 153e 5cd0 913e d4a3 fcbd 425a 153e
00000060: 874e f53d 6d66 97bd da4f 9a3e 4382 223e
00000070: efa2 943e e56b 23ba 60f1 2fbe ee42 9cbd
-0.25366646 -0.17026468 -0.15565883 0.053485643 -0.28697968 0.11605605 -0.2548743 0.3545283
-0.10027113 0.12331903 0.30330876 0.087063335 0.0145230135 0.324 -0.08770404 0.14572653
0.073536046 -0.0014257496 -0.06066156 -0.13085021 0.14551833 0.28479278 -0.12335935 0.14585212
0.119778685 -0.07392583 0.30139047 0.15870003 0.29030558 -0.0006234034 -0.17181921 -0.07629953

conv2.weight f4 [64, 32, 3, 3]
00000000: 4846 b4bc 2cb2 443d ae6e 363a b907 243d
00000010: 4409 093d 88cd b6bc 893e 2b3c 51c4 413d
00000020: 6343 5b3c da55 c63c 54ac 933c a706 fb3b
00000030: 3852 723c 63a2 d23c 5c8e 0b3c f5f5 993d
00000040: b027 143d 49ad 2b3c f867 db3c c5fd 45bd
00000050: c261 1f3d c649 99bb 84ec 8a3c 8716 af3c
00000060: a423 2ebd 4425 b63c e0ba 5c3c 6da2 52bd
00000070: 08af d9bc 7d00 1d3b 6a29 7fbd d023 81bd
00000080: ccff 24bd 87fa eabc 177f 4ebd b2c1 5dbd
00000090: febb f23c 2904 e8bc 05a7 3a3d 0002 75bb
000000a0: 4b9b 7bbc 1e46 aa3c a8e5 35bc 2763 143a
000000b0: 955e 6fbd 78a2 763c a4e9 4fbc 0ab6 423d
000000c0: 5728 07bd 5ffd 73bc 6454 1a3d fbdc 643c
000000d0: 5a85 353c c652 ce3c 36f0 d63c 77e0 5dbd
000000e0: 4c15 4e3c ba49 c2bc 509d 60bd b3d7 3a3d
000000f0: 7871 9dbc a09c d2ba 0a79 6fbd 1c2b f73a
00000100: c42f 05bd 302c 9ebd 4377 323d 36d7 a2bb
00000110: e7a6 e1bc 9af4 ea3c 3825 cbbb 29d6 523d
00000120: 0e87 963c 695e 7c3d 62fa cb3c 5961 38bd
00000130: fc9d 363d 4aeb 053c 250a 9abc 8722 233d
00000140: 6605 d5bc febe 76bd c316 0e3d 09b6 a1bc
00000150: 500b af3c 3b18 0abd f7b7 39bd b10e cb3c
00000160: ad07 6a3d 0238 063b bb95 fb3c 5d2a b239
00000170: 49d6 fd3c 104b 39bd e235 52bd 9cc7 4dbd
00000180: ed69 87b9 ec89 253d e4e9 73bd 0cbe 45bd
00000190: 13e7 393d 4427 023d 2fd0 2ebc aa81 aabc
000001a0: f632 1bbd 68bf 2a3d 3566 283d 4927 4a3d
000001b0: 203a 6a3c cd56 ecbc eac0 233d 3196 7f3c
000001c0: cab1 cfbc 25cb 8abb 0b16 303d 725e 85ba
000001d0: e5ee 6abc ac5b 80bd f3fe 133d 66dd 093c
000001e0: 47a6 dfbb a684 a53b 3a59 0fbd 785c 35bd
000001f0: ded3 023d ab63 583d 06d5 41bd fe99 7a3d
00000200: 4e47 b3bc eb07 47bd 2ad4 1dbd 824a 743b
00000210: 9ddb 06bd 9865 28bd 8f1f 353d 04e5 3ebd
00000220: cac2 0ebd 2caf 2bbc ee46 543d 7fb5 803d
00000230: 259c 1f3c 201b 893d 5a24 4c3d 9053 2ebc
00000240: ada5 62bb c063 6cbd 8c9c 7fbc ff80 14bd
00000250: 25a9 b13a 5810 bd3b a8a6 b53c 99d9 84bd
00000260: f4b1 643d 155b acbc a94d 22bd f201 2b3c
00000270: 5114 00bd 6fe5 823c 4a03 74bd e421 3dbd
00000280: 2db9 103d 8fb5 723c 4afa ef3b 5a9c 313d
00000290: 2468 073d a976 00bc a413 a43c ab1f 2c3d
000002a0: 8eb2 5a3b 7007 20bd 51ac 25bd 7c91 21bc
000002b0: 776e 0bbb e71a debc ae11 a5bc 2d59 963d
000002c0: a36c a93c 674e b2bc 1931 683d b193 49bc
000002d0: ad68 f1bb 6d54 2a3d 3a9a f43c 26c0 e3bc
000002e0: edd0 0bbd 9799 8a3c 6b24 593d 035f 3fbd
000002f0: bbaa c73a a845 5fbd f3ec cdbc a320 8dbd
00000300: c9c8 a1bc aa89 19bc b562 62bc e41c bc3b
00000310: 55d0 88bc 6409 053d 478a 543c 8b85 0a3d
00000320: a947 c63d 6145 9e3d 4799 093d 2bc2 a23d
00000330: fefb e13c f4ed 5b3c 5bcf c3bb 49f7 443d
00000340: 910e 2abc 6bde 263b 0eb2 a13c 26df 87bc
00000350: e2cf 593d 79ee 943c c81b 14bd 8c26 113d
00000360: f6ce a5bc 7a17 95bd d416 86bc 3327 b93c
00000370: 9e69 06bd 1511 6fbc 8388 ebbc 8e91 b5bc
00000380: 3f68 213c d080 db3c 2125 1dbd 4b4e e93c
00000390: d90a b33b 6fd7 d33c 0b3f b23c 7824 433d
000003a0: 403d 7a3d a990 533d b96f 39bd 0d35 153d
000003b0: 3f4b 0ebd 83e2 743d be7f 95bc 98be 103d
000003c0: 930e 9bbc 7b34 1cbd 3425 3cbd bda1 47bd
000003d0: 90b9 9a3c 7b4b 353c 745f 74bb db65 103c
000003e0: ce83 42bc 3de1 02bc b9e9 423d de5e 6abd
000003f0: d178 753d b7d4 443d 3d71 1b3d 2bf7 04bd
-0.022006169 0.04802148 0.00069592416 0.040046427 0.033456102 -0.022314802 0.010451921 0.047306363
0.013382765 0.02421086 0.018026508 0.007660705 0.01479011 0.025712198 0.008517828 0.07517616
0.03617066 0.010478326 0.026782975 -0.048337717 0.03891159 -0.004677984 0.016958483 0.021373047
-0.04251446 0.022234567 0.013472289 -0.051424433 -0.02657272 0.002395659 -0.062295355 -0.06305659
-0.04028301 -0.028683914 -0.05041417 -0.0541398 0.029630657 -0.028322296 0.04556944 -0.0037385225
-0.015356849 0.020785388 -0.011102118 0.0005660527 -0.05843981 0.015053384 -0.012689982 0.047536887
-0.032997455 -0.014891951 0.037678137 0.0139687015 0.011079157 0.025185954 0.026237588 -0.054169144
0.01257832 -0.023716796 -0.054837525 0.045615863 -0.019219145 -0.0016068406 -0.05846504 0.0018857452
-0.032516256 -0.07723272 0.043570768 -0.004969503 -0.027545406 0.028681088 -0.006199505 0.05147377
0.018374946 0.061613474 0.024899665 -0.045014713 0.04458426 0.008173773 -0.018803665 0.03982785
-0.02600355 -0.060240738 0.034689676 -0.019740121 0.021367699 -0.033714514 -0.04534146 0.024787279
0.057136226 0.002048016 0.030711045 0.0003398237 0.030985968 -0.0452376 -0.051320918 -0.05023919
-0.00025828127 0.040414736 -0.059549227 -0.048276946 0.045386385 0.031775728 -0.010669752 -0.020813782
-0.037890397 0.041686445 0.041113097 0.04935387 0.014296085 -0.028849984 0.0399789 0.015599773
-0.025353331 -0.0042356425 0.04298977 -0.0010175242 -0.014339183 -0.06267485 0.03613181 0.008414602
-0.0068252417 0.0050512133 -0.034997202 -0.04427764 0.031940334 0.052829426 -0.047322296 0.061182015
-0.021884587 -0.048591536 -0.038532414 0.0037275855 -0.032924283 -0.041112512 0.04421955 -0.046605125
-0.034853734 -0.010478776 0.051825456 0.06284618 0.009741818 0.06694627 0.049839355 -0.01064004
-0.0034583614 -0.057712317 -0.0156012885 -0.036255833 0.0013554437 0.0057697706 0.022174194 -0.06486816
0.05583377 -0.021039525 -0.039624844 0.0104374755 -0.031269375 0.015978543 -0.05957345 -0.0461749
0.035332847 0.014813795 0.007323538 0.043362 0.0330583 -0.007840791 0.020028897 0.04202239
0.0033370587 -0.039069593 -0.040447537 -0.009861346 -0.002127556 -0.027112437 -0.020150032 0.07341228
0.020681685 -0.0217659 0.05668745 -0.012303279 -0.0073672147 0.04158442 0.029858697 -0.027801584
-0.034134794 0.01691894 0.053013247 -0.04672147 0.0015233377 -0.05450979 -0.0251374 -0.068909906
-0.019749062 -0.009371201 -0.013817479 0.0057407487 -0.016700903 0.03247966 0.012972421 0.033818763
0.09681637 0.07728077 0.033593442 0.07947191 0.02758598 0.013423432 -0.0059756464 0.048087392
-0.010379449 0.0025462161 0.019738223 -0.016585898 0.053176768 0.018180119 -0.036159307 0.03543715
-0.020240288 -0.072798684 -0.016368307 0.0226017 -0.03281557 -0.014591475 -0.028751617 -0.022164132
0.009851514 0.026794821 -0.038365487 0.028479716 0.0054639396 0.025859563 0.021758577 0.0476422
0.06109357 0.05165163 -0.045272563 0.036427546 -0.03473973 0.05978633 -0.018249389 0.035338014
-0.018927848 -0.038135987 -0.045933917 -0.04873823 0.018887311 0.011065359 -0.003728834 0.008813347
-0.011872245 -0.007988271 0.047586177 -0.05721938 0.059929673 0.048054423 0.03794979 -0.03246228

conv2.bias f4 [64]
00000000: ff9b 52bd 17dd e13b d316 993b f29b 193d
00000010: faaa 513d 95c9 673d 3c59 793c 2e04 d23c
00000020: 6161 5e3d 75ff 5b3d 6a39 423d b1e0 4bbd
00000030: 3c33 2c3b 803f 6b3d 407b 573d 92b5 213d
00000040: d679 37bd 6d6b eebb 5886 fabc 8aa8 44bd
00000050: 577a b8bb aee4 2f3c 4e9b 5b3b 5920 7e3c
00000060: 0d3e 19bd 0ed7 c93c 5f7f 35bc f96b 7a3c
00000070: 0154 35bd b5f3 e03c 2729 1abd 6808 b53a
00000080: 0b5b 7b3d 0056 1bbd f683 043d c29b 0abc
00000090: cbab 58bb 49f9 fd3c 0d19 f3bc 983b a23c
000000a0: d332 e1bc d543 813d 2fed 97bc b1b8 063c
000000b0: f647 fc3c de8f 373d 8d18 2bbd 9e77 e9bc
000000c0: 01ee d9bc 35cb 673d 83c5 283c 4c7b a83b
000000d0: 1496 393d 41f4 263c cdf2 d0bb fa24 8cbc
000000e0: 11cd 0e3d 2a50 17bd a5fb 063d 4870 68bc
000000f0: 3c26 07bd 311e 37bc 3c08 b8bc 3113 9938
-0.0514183 0.006892811 0.0046719103 0.037502237 0.051188447 0.056588728 0.015219029 0.025636759
0.054292087 0.05371042 0.047418036 -0.04977483 0.0026275655 0.057433605 0.052607775 0.0394798
-0.044793926 -0.0072759897 -0.030581638 -0.048012294 -0.0056298184 0.010735674 0.0033509317 0.015510642
-0.03741269 0.024638679 -0.011077731 0.015284532 -0.044269565 0.027459959 -0.037636902 0.0013811709
0.061366122 -0.037923813 0.03235241 -0.008459987 -0.003306138 0.031002657 -0.029675031 0.019803807
-0.027490055 0.06311766 -0.018545715 0.008222745 0.030796032 0.044814937 -0.04177146 -0.02849942
-0.026602747 0.056590278 0.010300997 0.0051416513 0.04530914 0.010190071 -0.0063766004 -0.017107476
0.034863535 -0.036941685 0.03295483 -0.014186926 -0.032995448 -0.011176632 -0.022464864 7.299183e-05

encoding.weight f4 [10, 9216]
00000000: 0a48 aa3a f926 57bc d0ab 0fbc e72d 09bd
00000010: b3c0 1abd 62df 48bd cbf9 0cbd 0be7 02bd
00000020: c43f 0fbd 9ca4 60bd 83ac bdbc 93d7 49bc
00000030: f197 0a3b 3fb9 08bc 28a0 08bc 25ef d0bc
00000040: 8a35 b6bc 0b19 a0bc 3017 83bc 8cd4 40bc
00000050: 7fb2 fa3a dfde c1bc b493 0dbd b94c 08bd
00000060: 255e 58bc 84ad 9dbc c3c5 11bc 15cf 87bc
00000070: 7a00 0ebb 74c9 53bb f332 93bb a90d d33b
00000080: b2e7 263c d531 78bb cd39 1fbc 8f19 6cbc
00000090: 02ee ecbc 107c bcbc 1bac 99bc acef 90bc
000000a0: d809 db39 4088 b8bb 8585 823b e674 88bb
000000b0: bf27 83bb a00e bdbb 1606 e9bb a71a b83b
000000c0: 0c93 e1bc 71fd 92bc 0c01 d7bb aa3f 4fbc
000000d0: 9ec2 92bb 9eee 213b 634a 973a 2c65 0abc
000000e0: fa9e 44bc c4ad 01bb d409 5e3a 878c 95bc
000000f0: 399c 7cbc 591c babb 7462 f8bb ddf1 333a
00000100: 5835 debb a20d a83b c8fe 453c 5995 16b9
00000110: 3bc3 bbbb 9995 32bc de2f b1bb 010f 6ebc
00000120: a9ae 8fbc fa0c 19bc 2f90 adbc 72de 5a3b
00000130: 3844 d1bb 76c9 db3b 2e66 3cbb 6fbe cd3a
00000140: 03e4 38bc bdb6 b3bc 940b 4e3b 654d 96bb
00000150: 6331 cabc f4bd 7cbc 2581 94bc b82e 91bb
00000160: fe06 5dbc 3226 08bb d623 edbb 7de1 d33b
00000170: 2471 3fbb 4122 3abc aaf6 e0bb 5915 03bc
00000180: 77e8 cbbc 8e0d 303b 9d4b 95bb 1584 17bb
00000190: ba82 5bbc 33ac de3b 40d3 92ba f243 7cbc
000001a0: c348 a2bc 3d66 74bc 963c abbc b47a 97bc
000001b0: 8272 aabc fa05 24bc 874f 9f3a 23c2 0d3b
000001c0: 7f83 b13b 0b34 d73b ed37 f6bb 23a3 14bc
000001d0: 51d5 04bc 63dd c6bc f7f4 0cbc 72c6 b7bc
000001e0: 020d 99bc 7152 21bc deda 2fba 045b e2bb
000001f0: 5738 26ba 6d61 863b 00cd bf38 eb32 5dbc
00000200: bfe2 d3bb 23b8 b1bc 3451 d8bc 1791 eabc
00000210: 7bbe b2bc f7bd 2cbc 0148 37bc 8c3a 5dbc
00000220: b9c3 d8bb 564e 24bb b169 c6bb 30d5 08bc
00000230: f568 16bc ea68 91bc 7fcb f2bc a115 9ebc
00000240: ea83 fbbb eb0b 11ba 20f3 aebc 91c5 9ebc
00000250: 5cf4 03bd 4834 97bb 6bfc 8e3b 0384 26bb
00000260: 00a1 b8bb c9ac b0bc 298f b637 3602 6bbb
00000270: 3898 71ba 145a dcbc 968c eabc 98ae 66bc
00000280: 072a fcbb 3ab9 333d 3410 303d 1ed4 853d
00000290: 935c 99bc ebf6 b4bc fbd6 f0bb ba8f a7ba
000002a0: 1123 fbbb 341b e0bc 7774 75bc fbd9 f3bb
000002b0: 0baf 033b c1a2 493d 9450 093d 19d4 3d3d
000002c0: 0b7d 02bc 0110 3abc 587b 913b adef d03b
000002d0: d8ca ddbc 713c b8bc 2659 3cbc 68c0 503c
000002e0: b51d fa3c df4b 4e3d fea8 963c d04c de3b
000002f0: 4a8f a33b 53b2 dcbc 608f 6bba 8d6e 7abb
00000300: 8487 fabc a6e1 94bc a03e 7b3b 43d3 c03c
00000310: d963 343d c76c d53d 5baa ce3b 6ada b2ba
00000320: 9cf2 443b eaad debc 2101 82bc 5723 173c
00000330: 2318 dbbc 5b49 91bc 69d4 b53b cd32 f33c
00000340: 29df 1c3c a1da 9d3d 36ff 1abc f5fe 5b3b
00000350: 3ae8 6dbc 9220 f1bc 0218 bbbc d8db 9eba
00000360: 039e abbc 5928 f4bc 17a4 e039 f51f 0c3d
00000370: 0449 203d b452 ba3d 0a24 35bc 3a8a 75bc
00000380: d8d6 c2bb 89a7 4fbc 452e 61bc 0961 c8bb
00000390: 9112 35bc cc0b f2bc f7f6 f1bc 79d7 d53b
000003a0: 3cf4 ad3d 51bb df3d 0c7e f03b d50c 60bc
000003b0: 11a9 c7bc 94d1 0abb dbc7 89bc a70d 17bc
000003c0: 1483 6dbc 2005 8ebc 77d2 1abd 987f 2d3c
000003d0: 410b 933d 51c4 463d c8a5 913c e6a1 8fbc
000003e0: 1231 82bc 733c 80bc 99f2 78bc 8815 8e3b
000003f0: 67da 74bc 5daf aabc a593 9bbc a260 123c
0.001299144 -0.01313185 -0.008768991 -0.03349104 -0.03778143 -0.04904116 -0.03441791 -0.03195862
-0.03497292 -0.054844484 -0.023153549 -0.012319463 0.0021147693 -0.008344947 -0.0083389655 -0.025504658
-0.022242326 -0.019543191 -0.016002268 -0.011769425 0.0019126682 -0.023665844 -0.03456469 -0.033276293
-0.01320604 -0.019247778 -0.008897248 -0.016578237 -0.0021667765 -0.003231612 -0.0044921576 0.0064408374
0.010187076 -0.00378715 -0.009718371 -0.0144103905 -0.028922085 -0.023008376 -0.018758824 -0.01769241
0.0004177827 -0.0056314766 0.003983202 -0.004164326 -0.004002541 -0.0057695657 -0.007111321 0.0056184116
-0.027535938 -0.017943116 -0.006561404 -0.012649456 -0.0044787666 0.0024708877 0.0011542555 -0.008446973
-0.012000794 -0.001978741 0.00084700924 -0.018255485 -0.015418106 -0.005679649 -0.007580096 0.00068643485
-0.0067812614 0.0051285783 0.01208467 -0.00014360751 -0.0057300604 -0.010899925 -0.0054073175 -0.014529944
-0.01753934 -0.009341473 -0.021186916 0.0033396748 -0.006386306 0.0067073656 -0.0028747427 0.0015697012
-0.011284831 -0.021937722 0.0031440007 -0.004586863 -0.024681753 -0.015426148 -0.018127987 -0.004430618
-0.013490437 -0.002077472 -0.007236938 0.0064660893 -0.0029211724 -0.011360706 -0.006865342 -0.008000695
-0.024891121 0.0026863548 -0.004556133 -0.0023119499 -0.013397867 0.00679543 -0.0011201873 -0.015397059
-0.019810086 -0.014916954 -0.020902913 -0.018491127 -0.020806555 -0.010011191 0.0012154438 0.0021630607
0.005417287 0.0065674833 -0.007513991 -0.009072098 -0.008107499 -0.024275487 -0.008603326 -0.022433493
-0.01868296 -0.009846316 -0.0006708334 -0.0069078226 -0.0006340793 0.0041009695 9.145774e-05 -0.013500909
-0.006466239 -0.021694249 -0.026405908 -0.028633637 -0.021819344 -0.010543338 -0.011186601 -0.013502728
-0.006615129 -0.0025071106 -0.00605508 -0.008351609 -0.009180297 -0.017750222 -0.02963805 -0.019297423
-0.0076756375 -0.0005533087 -0.021356165 -0.019381316 -0.03221546 -0.0046143867 0.0043635867 -0.0025408275
-0.005634427 -0.021566765 2.1762755e-05 -0.0035859472 -0.0009216103 -0.026898421 -0.02863149 -0.014079712
-0.0076954397 0.043877818 0.042984203 0.06534599 -0.0187209 -0.022090396 -0.0073498464 -0.0012783923
-0.0076640924 -0.027356721 -0.014981381 -0.007441757 0.0020093347 0.04922748 0.03352411 0.04634485
-0.007964383 -0.011356355 0.0044397525 0.006376228 -0.027074262 -0.022489758 -0.011495864 0.012741186
0.030531744 0.050365325 0.018391129 0.006784059 0.0049914466 -0.0269405 -0.0008985903 -0.0038212866
-0.030582197 -0.018174004 0.0038336888 0.023538237 0.044040535 0.10421138 0.006306929 -0.0013645415
0.0030051833 -0.027182538 -0.015869679 0.009224734 -0.026744908 -0.017735174 0.005549003 0.02968731
0.00957469 0.07707716 -0.009460261 0.0033568714 -0.014520699 -0.029434476 -0.022838596 -0.0012119962
-0.02094937 -0.029804396 0.00042846866 0.034210164 0.039132133 0.090978056 -0.011055956 -0.014986569
-0.0059460215 -0.012674221 -0.013743942 -0.006115083 -0.01105179 -0.02954664 -0.029536707 0.0065259305
0.0849385 0.109244 0.0073392447 -0.013674934 -0.02437261 -0.0021182047 -0.016818931 -0.009219564
-0.0144965835 -0.017336428 -0.03779837 0.010589503 0.07179881 0.048527066 0.017779246 -0.017533254
-0.01589254 -0.015653824 -0.015194559 0.004336063 -0.014944649 -0.020835573 -0.0189913 0.008934172

encoding.bias f4 [10]
00000000: 73e0 2f3b 7857 8cb9 179a 54ba 412f a93c
00000010: 1cf8 1cbc f408 413b 26d8 36bb 55b0 d9bb
00000020: 86d8 1e3b 5c19 27bb
0.0026836663 -0.0002676805 -0.00081101194 0.020652415 -0.009580638 0.00294548 -0.002789983 -0.006643335
0.0024237945 -0.0025497293

fc.weight f4 [784, 10]
00000000: db09 9ebe e506 cb3c 576d 19be 389f e8be
00000010: 48ef cf3d db51 ebbe ff2e ecbe 0e10 02be
00000020: 6701 0ebe 1d25 033e 1432 8cbe d02c b9bc
00000030: 4c32 8fbe 9784 ecbe d118 69be a339 debe
00000040: 11f5 25bd a260 e4bd 699d c33d 3601 583e
00000050: 7d1a 7bbe 664d 6bbe 9d6a 9cbe 70b6 a3be
00000060: 7bda 5d3e b9d7 e8be 4b34 c1be ee39 4a3e
00000070: 82db 7dbe 9500 bdbd ad27 afbe 1c82 ecbe
00000080: 8c09 0ebf 20de 5bbe c34f 7e3d 4a00 efbd
00000090: ac98 c43c 0ea7 e23c 1438 7bbe 2fcd 7abe
000000a0: 5df4 65be c4db 6bbe 8831 81be 099b b1be
000000b0: a41b 4abd e09b c2be 8b66 88be 3656 e83d
000000c0: 1fde 80be 3448 fbbd ae56 2fbf 6cc0 47be
000000d0: e029 5abe 6d41 f1bd e8d0 01be b819 a0bd
000000e0: 29fc 00bf a150 203d 5801 8bbe 704b e13d
000000f0: 3454 b5bd 63bc 64be 8de6 5abc 9d89 20bf
00000100: 71ff 543d 6846 e8be 06d7 d5bd 866b 48be
00000110: db1c 05be 3b65 993e 32d1 52be 4231 14bf
00000120: 2fd2 d0be 139e 36be 500d 983d 5728 8ebe
00000130: b8f2 85bd 5a54 bcbd a7ac c5bd 341e 9fbe
00000140: 1e87 09bf 63ac dfbe 78ae 053e e144 dbbe
00000150: 2f36 573e afa1 8abe c458 c0bc 5ae2 9dbe
00000160: 7e85 a73d f3f5 ebbd a44a c1be 327e e9be
00000170: a2d9 00bd f569 e0be e4f4 47be 2fe5 ecbd
00000180: 1ef4 ccbe 0215 a33d 745b 83be 44d4 e9bd
00000190: 3bd5 bfbe 0431 2ebe f048 46bd 06bf e2be
000001a0: 7ba4 adbd 8739 c6be 730a 9cbe 3671 d4bd
000001b0: 6d79 3dbe 624c bfbd ab8a 5cbd 1907 193c
000001c0: 97c4 1bbe 6e7c 0dbf 77bf 013e cb23 d7be
000001d0: 6e21 0fbf 5d6e f6bd 613b 97bd 4910 cf3d
000001e0: d774 dfbd 10c5 9ebe 4c01 11bf a291 1dbe
000001f0: 1fbd 69be 89b2 f4be ab24 2ebd 616b acbe
00000200: ee92 4cbe bc16 0a3e 74a1 fabe 59f6 81bb
00000210: 1903 d6be b58e dabe f3d4 983e 5f6b 90bd
00000220: ab00 073d ecb2 d63d 6810 e43d 35aa 5abc
00000230: 7416 8dbe 1333 a6be be9e 17be 7ade d5be
00000240: e2fc b43d 9e71 47be 5520 e2be 234f a83c
00000250: abbf 33be 60a2 af3c 2a02 84be 25b4 39be
00000260: fc61 eebe efeb b9be 59d0 b13d 861e 11be
00000270: f7a6 91be ff51 78be ffc8 26bd 6f41 20bd
00000280: bb43 d0bd 854c abbe dee9 a5be 52ca f6be
00000290: ce90 45be e74b d6bd e067 debe afa8 133e
000002a0: a595 aebd 1ad7 89be f80b 94be dc7b b0be
000002b0: 4f2a aebd c774 fdbe 991f 4dbe 6718 54be
000002c0: a899 a7be 74a2 2e3d 4a0c 96be 4277 51bd
000002d0: 91e9 07bf 5bf4 0dbf 881c d6be e2ff 193c
000002e0: 7b37 bc3d 0dd9 3abc 8260 fdbe 028b bebd
000002f0: 2a50 b33c 1343 453e 34db bebe 0384 eabe
00000300: ea84 d6be 7e71 4fbe ccdc 52bd 49de 03bb
00000310: f7c4 cbbe 998d 6ebe 0b3a 9b3c e9d4 a4bb
00000320: bdbe ccbe 60d2 2dbe 2443 a6be 6294 b0be
00000330: ffc0 dd3c 7f54 03be 6a7c d5be d8c6 083e
00000340: 21b2 523d 8f77 febd 6387 e5be e811 e2be
00000350: c36e d8be f1da d8be f5e5 2f3a b83a 623d
00000360: 1635 a4bd 1cd1 77be aaf9 9bbe 5171 233d
00000370: ee48 75be 711a 04bf cafa 80be 7f6a 73be
00000380: af8d f3bd d424 babe 28b8 60bb ab7a a4be
00000390: 0274 56be f4c2 50be b8d6 663c 512f f7be
000003a0: 9de6 cebe 0287 c3be 0a76 903e 4ab3 d3be
000003b0: 0c84 16be b65a 0ebd d51f 28be db76 883e
000003c0: cd4f 77be e02e ccbe 3f06 d7be 8541 b0be
000003d0: 72e2 d43c 1fda 6abd 949b b8be bafd 353e
000003e0: cf1b d03d da11 d1bd 0a56 f0bd 5a49 95be
000003f0: 7425 96be 4a6f 36bf 4f7e 8ebe 9b79 01bd
-0.30866894 0.024783561 -0.14983116 -0.45433974 0.10153061 -0.45960888 -0.46129605 -0.12701437
-0.13867722 0.12807126 -0.27381957 -0.022604376 -0.2796806 -0.46194908 -0.22763373 -0.43403348
-0.040516917 -0.11151244 0.09551508 0.21094212 -0.24521823 -0.22978744 -0.3055009 -0.31975126
0.21665375 -0.45477083 -0.3773521 0.19748661 -0.24790767 -0.09228627 -0.34209958 -0.46193016
-0.5548332 -0.21471453 0.062087785 -0.11669977 0.02399858 0.027667549 -0.24533111 -0.24492334
-0.22456498 -0.23033053 -0.25233102 -0.34688595 -0.049342766 -0.38009548 -0.26640734 0.113445684
-0.25169465 -0.12269631 -0.6849164 -0.19506997 -0.21305037 -0.11780057 -0.12677348 -0.078174055
-0.50384766 0.039139394 -0.27149463 0.11000717 -0.08853951 -0.22337489 -0.013360632 -0.6270998
0.05200142 -0.45366216 -0.10441403 -0.19572267 -0.12999289 0.29960045 -0.20587614 -0.5788766
-0.40785357 -0.17833738 0.07424414 -0.27765152 -0.065404356 -0.09195776 -0.096520714 -0.3107773
-0.537218 -0.43686208 0.13054836 -0.42825988 0.21016763 -0.2707648 -0.023479827 -0.30836755
0.081797585 -0.115215205 -0.3775226 -0.45604092 -0.03145755 -0.4383084 -0.19527012 -0.11567151
-0.40029997 0.07962991 -0.2565571 -0.114174396 -0.3746737 -0.17010885 -0.048409402 -0.44286364
-0.08478638 -0.38715765 -0.30476722 -0.10373156 -0.18503352 -0.09340741 -0.05384318 0.009340071
-0.15211712 -0.5526799 0.12670694 -0.42019495 -0.55910385 -0.12032769 -0.073843725 0.10110528
-0.10910957 -0.31009722 -0.56642604 -0.15387586 -0.2282605 -0.47792462 -0.042515438 -0.33675674
-0.19977924 0.13485235 -0.48951304 -0.0039661345 -0.41799238 -0.42687002 0.29849967 -0.070517294
0.03295962 0.104833454 0.11135942 -0.013346245 -0.27556193 -0.32460842 -0.14806649 -0.417713
0.08837296 -0.19476935 -0.44165292 0.020545548 -0.17553584 0.021439731 -0.257829 -0.18135126
-0.4655913 -0.36312816 0.08682317 -0.141718 -0.28447697 -0.24250029 -0.04071903 -0.039124902
-0.101691686 -0.33456817 -0.3240499 -0.48201233 -0.1929352 -0.10463696 -0.43438625 0.14419816
-0.08524636 -0.26921922 -0.2891538 -0.34469497 -0.085041635 -0.49503157 -0.20031585 -0.20712434
-0.32734418 0.042635396 -0.2930625 -0.051139124 -0.5309077 -0.5545098 -0.41818643 0.009399386
0.091902696 -0.011404288 -0.49487692 -0.093038574 0.021888811 0.19263868 -0.37276614 -0.45803842
-0.4189828 -0.20258138 -0.0514801 -0.0020121506 -0.3979871 -0.23296203 0.018948575 -0.0050302637
-0.39989272 -0.16974783 -0.324731 -0.34488207 0.027069567 -0.12825201 -0.41696483 0.13357103
0.05143941 -0.12425148 -0.44829854 -0.44154286 -0.42272004 -0.4235454 0.00067099865 0.05523178
-0.08017938 -0.24200863 -0.30463916 0.03990299 -0.23953602 -0.51602846 -0.25191337 -0.23771094
-0.118922584 -0.36356223 -0.0034289453 -0.32124838 -0.20942691 -0.20386869 0.014089279 -0.48278287
-0.4041032 -0.3818894 0.28215057 -0.41347724 -0.1469881 -0.034754477 -0.16418393 0.2665318
-0.24151535 -0.39879513 -0.41996953 -0.34424987 0.025986884 -0.057336923 -0.36056197 0.1777257
0.10161554 -0.10208483 -0.11735161 -0.29157525 -0.2932545 -0.71263564 -0.2783074 -0.031610113

fc.bias f4 [784]
00000000: 7c76 bcbe d64c 5b3d 99ae 5cbe 2267 72bd
00000010: 04ca 443d 4f54 41be 7d51 a9be d64a 95bd
00000020: f193 5dbe 44f6 4fbe 0c1b a6be cb8e 203e
00000030: 5750 f5bd 5e63 cebe fbfb b3bd f83a 0d3d
00000040: 9e9d ebbe a1cc 96bd dcba 9dbd fb26 213e
00000050: f510 1d3e bd61 123e aa8e 68be 54b9 b5be
00000060: 8172 46be 2e16 113e 8423 85be d4be c2be
00000070: 9f54 cdbe 0f0f f9bc 20d4 9fbe 201c 2d3e
00000080: 4174 8a3d 464e e9be 902b c13d e78b ebbe
00000090: 335b 043e 1c9a 283e 8d93 5b3c 320c e83d
000000a0: c336 183e e8a7 48be b0a3 c3be 3173 553e
000000b0: d1c4 2a3e 53ae b9be 237d 033d 03cb 35be
000000c0: 19c8 b5be 2e81 bdbe cadb cebe c6aa 093e
000000d0: 94cf 29be 83b2 233c 9e70 d0bd 1995 0c3c
000000e0: 983d b4be 11e6 a6be 73b1 8ebe 976f c0be
000000f0: 2b8d 51be 2a26 d1be b84b e23d c9b4 56be
00000100: 40da 64be f9a1 03be e1eb 8dbe cc4b 853e
00000110: 0405 69ba 3eab 753d 41d2 fa3c ca72 99bd
00000120: 3a96 9c3b 9673 67be 53c1 af3b 82d6 e7bc
00000130: 4929 89be 1b0e a13d 2afe adbd f566 9fbe
00000140: 0b07 69be 53f2 5abe 89bf 083e 3f8a e3bd
00000150: 52e0 013e 3007 8ebd db72 6dbe 1b0b 383d
00000160: 46a4 e5bd 8279 d2be 442d a73d d643 cd3d
00000170: b038 99be 22df 8c3e 630a 49be a99a 63be
00000180: 808a b83d 58ab b23d f74d 1f3e 2560 bebd
00000190: 1ac8 58be d22d 8cbe 505d 433c 21a3 98be
000001a0: e6e3 9dbe 60e6 aebe 75ee 9fbd 777d b23d
000001b0: accd d9bd 3d94 75be 886f bdbe 58a4 953d
000001c0: fe31 1b3d 34ce 383c 3d31 8f3d 95de 813d
000001d0: f3ef a0bc 687c f13a d971 63be fd39 843e
000001e0: 6d60 11be 8ffd a9bd c1d1 9abe 4727 14bd
000001f0: 57be 4c3e 4fd5 e33d dfce 12be e38b 013e
00000200: c63c a1be 119e e03d cc07 403e 2757 823e
00000210: 6138 663c bc11 0c3e e5e8 30be e2ae 11be
00000220: b821 20be 0395 c73c 3a54 053e cc32 abbe
00000230: 82d8 48be a3b3 1dbc d97b 63be d345 b4be
00000240: e506 9bbd b4b4 a7be 6f82 85be 5094 91bd
00000250: cb90 273d 8ded 7dbe 8806 b53d 7952 6ebe
00000260: f674 ecbd dddc b2bd 5979 dd3d 0e8e 9dbe
00000270: a289 87be b3ec 0b3e 9c88 293e 44e5 a1bc
00000280: f173 2b3d 036c 74be 8fb8 183e ef0d 0cbe
00000290: a414 473e 98e2 f23d a620 9fbe fade 103e
000002a0: 8469 99be 8a8b 7cbd e35e 86bd bbb3 163e
000002b0: 44ac 3a3c 2fe9 92bd ece3 babd 7e85 89be
000002c0: 262c 27be a02f edbd 37b9 753e 1d1c dbbc
000002d0: 10e5 ae3e 43e9 6e3e 44a2 84be 6ddb bf3e
000002e0: 36f7 44be 4f0f 573e 69d1 28be cc30 823b
000002f0: 31bb 853d fde6 4a3c 2724 883d 114d aabe
00000300: c23f 44be 9593 0ebe 5a6d 243e fcd7 c6be
00000310: dc08 893d ef49 87be 4fca 04bc 81ac b0be
00000320: c363 e9bd f3b0 9d3d 00ad 85be a96c 51bd
00000330: 7cdb 543e 67aa 05be 5329 e4bd 3c2d 29be
00000340: 2052 89bd c8f4 6abe 236f 6cbe dcde df3d
00000350: c815 613e c657 a23e ef06 1e3e 7c98 813e
00000360: 1283 4c3e 5114 58be 4886 913e f05a 90be
00000370: f4dd f2bd 853a 1bbe e0bc 9d3d b583 64bd
00000380: 1895 e3bc d1e2 90bc 4cb5 273e 4723 7bbc
00000390: 7937 0b3c a88f ea3c df17 3c3e 0ef0 8abe
000003a0: a15d 8b3e 517c 2d3e 6dbb b73d 31ea 173e
000003b0: efe9 f6bd 5d21 ed3d d7ae 433e f369 2d3e
000003c0: 114b f6bd 5617 6ebe c781 26bd 2a40 cc3d
000003d0: c2fe 673e 7dbe bfbb 815e 1cbd 2184 91bc
000003e0: cfcb cabd 3ad6 02be 8d7f 8abe c1e2 e2be
000003f0: 1cfe 2e3d 773d c6be c0a6 a7be 3471 9fbe
-0.36809146 0.053540073 -0.21550979 -0.059180386 0.04804422 -0.18879817 -0.33069983 -0.072896644
-0.21638466 -0.20308787 -0.3244251 0.15679471 -0.11978214 -0.40310186 -0.08788296 0.034480065
-0.4601869 -0.073632486 -0.07701656 0.15737526 0.153385 0.14295097 -0.22710672 -0.35492957
-0.19379617 0.14168617 -0.2600366 -0.38036215 -0.40103623 -0.030402688 -0.31216526 0.1690526
0.06760455 -0.4556753 0.09432137 -0.46005175 0.12925415 0.16465038 0.013401878 0.11330451
0.1486464 -0.19595301 -0.3821082 0.20844723 0.16676642 -0.3626581 0.03210176 -0.17753224
-0.35504225 -0.3701262 -0.4040206 0.13444051 -0.16583091 0.009991291 -0.1017773 0.0085804695
-0.35203242 -0.32597402 -0.27869758 -0.37585136 -0.20464008 -0.4084943 0.110495985 -0.20967402
-0.22348881 -0.12854756 -0.27719024 0.2603439 -0.0008888992 0.059977762 0.030617835 -0.074925974
0.0047786506 -0.22602686 0.005363622 -0.028300527 -0.2678931 0.078640185 -0.084957436 -0.31133237
-0.22756593 -0.21381502 0.13354315 -0.11110353 0.12683228 -0.06934965 -0.23188345 0.044932466
-0.11212973 -0.41108328 0.081629306 0.10022704 -0.29926062 0.27513987 -0.19632868 -0.22226967
0.09010792 0.087240875 0.15557085 -0.09295682 -0.21170083 -0.27378708 0.011924103 -0.29811957
-0.30837935 -0.34160137 -0.07809154 0.08715337 -0.10634932 -0.2398233 -0.36999154 0.07306737
0.037889473 0.011279631 0.06991813 0.06341282 -0.019645667 0.0018423917 -0.22211398 0.25825492
-0.1419694 -0.083003156 -0.30238155 -0.03617027 0.19994484 0.1112467 -0.14336728 0.12651019
-0.3149168 0.10967649 0.18752974 0.25457117 0.014051528 0.1367864 -0.17276342 -0.14226869
-0.15637863 0.024363047 0.13020411 -0.33437192 -0.19613841 -0.009625348 -0.22215213 -0.35209522
-0.075696744 -0.32755053 -0.26076075 -0.071083665 0.04090957 -0.2479765 0.08839136 -0.23273648
-0.11545746 -0.087335326 0.10814161 -0.30772442 -0.26472193 0.13664512 0.16556019 -0.019762643
0.041858617 -0.23869328 0.14914154 -0.1367719 0.19441468 0.118596256 -0.31079596 0.14147559
-0.29963315 -0.061656512 -0.06561067 0.14716999 0.01139361 -0.071733825 -0.09125504 -0.2685966
-0.16325435 -0.115813494 0.23996435 -0.026746804 0.34159136 0.2333117 -0.2590505 0.37472096
-0.19234928 0.21001934 -0.16486134 0.003973102 0.065298446 0.012384173 0.066475205 -0.33261922
-0.19164947 -0.13923486 0.1605734 -0.38836658 0.06691143 -0.26423594 -0.008104875 -0.3450661
-0.11395981 0.07699766 -0.2610855 -0.051129017 0.20786852 -0.13053285 -0.111406945 -0.16521162
-0.06705117 -0.22944939 -0.2308927 0.10931179 0.21980965 0.3170759 0.15432332 0.2531165
0.19971874 -0.211015 0.2842276 -0.2819438 -0.118587404 -0.15159042 0.07702041 -0.055789668
-0.027781054 -0.01768628 0.16377753 -0.015328235 0.008497112 0.028632954 0.18368481 -0.27136272
0.2721987 0.16941954 0.089712955 0.1483543 -0.12056338 0.11578629 0.19109665 0.16934948
-0.120260365 -0.2325109 -0.04065111 0.09973176 0.22655776 -0.0058515654 -0.038176063 -0.0177632
-0.09902155 -0.12777033 -0.2705044 -0.44313625 0.042722806 -0.3871877 -0.32744408 -0.31141055
